{"class_name": "Model", "config": {"name": "model_1", "layers": [{"name": "question", "class_name": "InputLayer", "config": {"batch_input_shape": [null, 35, 120], "dtype": "float32", "sparse": false, "name": "question"}, "inbound_nodes": []}, {"name": "premise0", "class_name": "InputLayer", "config": {"batch_input_shape": [null, 35, 120], "dtype": "float32", "sparse": false, "name": "premise0"}, "inbound_nodes": []}, {"name": "premise1", "class_name": "InputLayer", "config": {"batch_input_shape": [null, 35, 120], "dtype": "float32", "sparse": false, "name": "premise1"}, "inbound_nodes": []}, {"name": "premise2", "class_name": "InputLayer", "config": {"batch_input_shape": [null, 35, 120], "dtype": "float32", "sparse": false, "name": "premise2"}, "inbound_nodes": []}, {"name": "shared_conv_1", "class_name": "Conv1D", "config": {"name": "shared_conv_1", "trainable": true, "filters": 128, "kernel_size": [1], "strides": [1], "padding": "valid", "data_format": "channels_last", "dilation_rate": [1], "activation": "relu", "use_bias": true, "kernel_initializer": {"class_name": "VarianceScaling", "config": {"scale": 1.0, "mode": "fan_avg", "distribution": "uniform", "seed": null}}, "bias_initializer": {"class_name": "Zeros", "config": {}}, "kernel_regularizer": null, "bias_regularizer": null, "activity_regularizer": null, "kernel_constraint": null, "bias_constraint": null}, "inbound_nodes": [[["question", 0, 0, {}]], [["premise0", 0, 0, {}]], [["premise1", 0, 0, {}]], [["premise2", 0, 0, {}]]]}, {"name": "shared_conv_2", "class_name": "Conv1D", "config": {"name": "shared_conv_2", "trainable": true, "filters": 128, "kernel_size": [2], "strides": [1], "padding": "valid", "data_format": "channels_last", "dilation_rate": [1], "activation": "relu", "use_bias": true, "kernel_initializer": {"class_name": "VarianceScaling", "config": {"scale": 1.0, "mode": "fan_avg", "distribution": "uniform", "seed": null}}, "bias_initializer": {"class_name": "Zeros", "config": {}}, "kernel_regularizer": null, "bias_regularizer": null, "activity_regularizer": null, "kernel_constraint": null, "bias_constraint": null}, "inbound_nodes": [[["question", 0, 0, {}]], [["premise0", 0, 0, {}]], [["premise1", 0, 0, {}]], [["premise2", 0, 0, {}]]]}, {"name": "shared_conv_3", "class_name": "Conv1D", "config": {"name": "shared_conv_3", "trainable": true, "filters": 128, "kernel_size": [3], "strides": [1], "padding": "valid", "data_format": "channels_last", "dilation_rate": [1], "activation": "relu", "use_bias": true, "kernel_initializer": {"class_name": "VarianceScaling", "config": {"scale": 1.0, "mode": "fan_avg", "distribution": "uniform", "seed": null}}, "bias_initializer": {"class_name": "Zeros", "config": {}}, "kernel_regularizer": null, "bias_regularizer": null, "activity_regularizer": null, "kernel_constraint": null, "bias_constraint": null}, "inbound_nodes": [[["question", 0, 0, {}]], [["premise0", 0, 0, {}]], [["premise1", 0, 0, {}]], [["premise2", 0, 0, {}]]]}, {"name": "max_pooling1d_1", "class_name": "MaxPooling1D", "config": {"name": "max_pooling1d_1", "trainable": true, "strides": [1], "pool_size": [1], "padding": "valid", "data_format": "channels_last"}, "inbound_nodes": [[["shared_conv_1", 0, 0, {}]]]}, {"name": "max_pooling1d_2", "class_name": "MaxPooling1D", "config": {"name": "max_pooling1d_2", "trainable": true, "strides": [1], "pool_size": [1], "padding": "valid", "data_format": "channels_last"}, "inbound_nodes": [[["shared_conv_1", 1, 0, {}]]]}, {"name": "max_pooling1d_3", "class_name": "MaxPooling1D", "config": {"name": "max_pooling1d_3", "trainable": true, "strides": [1], "pool_size": [1], "padding": "valid", "data_format": "channels_last"}, "inbound_nodes": [[["shared_conv_1", 2, 0, {}]]]}, {"name": "max_pooling1d_4", "class_name": "MaxPooling1D", "config": {"name": "max_pooling1d_4", "trainable": true, "strides": [1], "pool_size": [1], "padding": "valid", "data_format": "channels_last"}, "inbound_nodes": [[["shared_conv_1", 3, 0, {}]]]}, {"name": "max_pooling1d_5", "class_name": "MaxPooling1D", "config": {"name": "max_pooling1d_5", "trainable": true, "strides": [2], "pool_size": [2], "padding": "valid", "data_format": "channels_last"}, "inbound_nodes": [[["shared_conv_2", 0, 0, {}]]]}, {"name": "max_pooling1d_6", "class_name": "MaxPooling1D", "config": {"name": "max_pooling1d_6", "trainable": true, "strides": [2], "pool_size": [2], "padding": "valid", "data_format": "channels_last"}, "inbound_nodes": [[["shared_conv_2", 1, 0, {}]]]}, {"name": "max_pooling1d_7", "class_name": "MaxPooling1D", "config": {"name": "max_pooling1d_7", "trainable": true, "strides": [2], "pool_size": [2], "padding": "valid", "data_format": "channels_last"}, "inbound_nodes": [[["shared_conv_2", 2, 0, {}]]]}, {"name": "max_pooling1d_8", "class_name": "MaxPooling1D", "config": {"name": "max_pooling1d_8", "trainable": true, "strides": [2], "pool_size": [2], "padding": "valid", "data_format": "channels_last"}, "inbound_nodes": [[["shared_conv_2", 3, 0, {}]]]}, {"name": "max_pooling1d_9", "class_name": "MaxPooling1D", "config": {"name": "max_pooling1d_9", "trainable": true, "strides": [3], "pool_size": [3], "padding": "valid", "data_format": "channels_last"}, "inbound_nodes": [[["shared_conv_3", 0, 0, {}]]]}, {"name": "max_pooling1d_10", "class_name": "MaxPooling1D", "config": {"name": "max_pooling1d_10", "trainable": true, "strides": [3], "pool_size": [3], "padding": "valid", "data_format": "channels_last"}, "inbound_nodes": [[["shared_conv_3", 1, 0, {}]]]}, {"name": "max_pooling1d_11", "class_name": "MaxPooling1D", "config": {"name": "max_pooling1d_11", "trainable": true, "strides": [3], "pool_size": [3], "padding": "valid", "data_format": "channels_last"}, "inbound_nodes": [[["shared_conv_3", 2, 0, {}]]]}, {"name": "max_pooling1d_12", "class_name": "MaxPooling1D", "config": {"name": "max_pooling1d_12", "trainable": true, "strides": [3], "pool_size": [3], "padding": "valid", "data_format": "channels_last"}, "inbound_nodes": [[["shared_conv_3", 3, 0, {}]]]}, {"name": "lstm_1", "class_name": "LSTM", "config": {"name": "lstm_1", "trainable": true, "return_sequences": false, "return_state": false, "go_backwards": false, "stateful": false, "unroll": false, "units": 120, "activation": "tanh", "recurrent_activation": "hard_sigmoid", "use_bias": true, "kernel_initializer": {"class_name": "VarianceScaling", "config": {"scale": 1.0, "mode": "fan_avg", "distribution": "uniform", "seed": null}}, "recurrent_initializer": {"class_name": "Orthogonal", "config": {"gain": 1.0, "seed": null}}, "bias_initializer": {"class_name": "Zeros", "config": {}}, "unit_forget_bias": true, "kernel_regularizer": null, "recurrent_regularizer": null, "bias_regularizer": null, "activity_regularizer": null, "kernel_constraint": null, "recurrent_constraint": null, "bias_constraint": null, "dropout": 0.0, "recurrent_dropout": 0.0, "implementation": 1}, "inbound_nodes": [[["max_pooling1d_1", 0, 0, {}]], [["max_pooling1d_2", 0, 0, {}]], [["max_pooling1d_3", 0, 0, {}]], [["max_pooling1d_4", 0, 0, {}]]]}, {"name": "lstm_2", "class_name": "LSTM", "config": {"name": "lstm_2", "trainable": true, "return_sequences": false, "return_state": false, "go_backwards": false, "stateful": false, "unroll": false, "units": 120, "activation": "tanh", "recurrent_activation": "hard_sigmoid", "use_bias": true, "kernel_initializer": {"class_name": "VarianceScaling", "config": {"scale": 1.0, "mode": "fan_avg", "distribution": "uniform", "seed": null}}, "recurrent_initializer": {"class_name": "Orthogonal", "config": {"gain": 1.0, "seed": null}}, "bias_initializer": {"class_name": "Zeros", "config": {}}, "unit_forget_bias": true, "kernel_regularizer": null, "recurrent_regularizer": null, "bias_regularizer": null, "activity_regularizer": null, "kernel_constraint": null, "recurrent_constraint": null, "bias_constraint": null, "dropout": 0.0, "recurrent_dropout": 0.0, "implementation": 1}, "inbound_nodes": [[["max_pooling1d_5", 0, 0, {}]], [["max_pooling1d_6", 0, 0, {}]], [["max_pooling1d_7", 0, 0, {}]], [["max_pooling1d_8", 0, 0, {}]]]}, {"name": "lstm_3", "class_name": "LSTM", "config": {"name": "lstm_3", "trainable": true, "return_sequences": false, "return_state": false, "go_backwards": false, "stateful": false, "unroll": false, "units": 120, "activation": "tanh", "recurrent_activation": "hard_sigmoid", "use_bias": true, "kernel_initializer": {"class_name": "VarianceScaling", "config": {"scale": 1.0, "mode": "fan_avg", "distribution": "uniform", "seed": null}}, "recurrent_initializer": {"class_name": "Orthogonal", "config": {"gain": 1.0, "seed": null}}, "bias_initializer": {"class_name": "Zeros", "config": {}}, "unit_forget_bias": true, "kernel_regularizer": null, "recurrent_regularizer": null, "bias_regularizer": null, "activity_regularizer": null, "kernel_constraint": null, "recurrent_constraint": null, "bias_constraint": null, "dropout": 0.0, "recurrent_dropout": 0.0, "implementation": 1}, "inbound_nodes": [[["max_pooling1d_9", 0, 0, {}]], [["max_pooling1d_10", 0, 0, {}]], [["max_pooling1d_11", 0, 0, {}]], [["max_pooling1d_12", 0, 0, {}]]]}, {"name": "concatenate_1", "class_name": "Concatenate", "config": {"name": "concatenate_1", "trainable": true, "axis": -1}, "inbound_nodes": [[["lstm_1", 0, 0, {}], ["lstm_1", 1, 0, {}], ["lstm_1", 2, 0, {}], ["lstm_1", 3, 0, {}], ["lstm_2", 0, 0, {}], ["lstm_2", 1, 0, {}], ["lstm_2", 2, 0, {}], ["lstm_2", 3, 0, {}], ["lstm_3", 0, 0, {}], ["lstm_3", 1, 0, {}], ["lstm_3", 2, 0, {}], ["lstm_3", 3, 0, {}]]]}, {"name": "dense_1", "class_name": "Dense", "config": {"name": "dense_1", "trainable": true, "units": 72, "activation": "relu", "use_bias": true, "kernel_initializer": {"class_name": "VarianceScaling", "config": {"scale": 1.0, "mode": "fan_avg", "distribution": "uniform", "seed": null}}, "bias_initializer": {"class_name": "Zeros", "config": {}}, "kernel_regularizer": null, "bias_regularizer": null, "activity_regularizer": null, "kernel_constraint": null, "bias_constraint": null}, "inbound_nodes": [[["concatenate_1", 0, 0, {}]]]}, {"name": "dense_2", "class_name": "Dense", "config": {"name": "dense_2", "trainable": true, "units": 48, "activation": "relu", "use_bias": true, "kernel_initializer": {"class_name": "VarianceScaling", "config": {"scale": 1.0, "mode": "fan_avg", "distribution": "uniform", "seed": null}}, "bias_initializer": {"class_name": "Zeros", "config": {}}, "kernel_regularizer": null, "bias_regularizer": null, "activity_regularizer": null, "kernel_constraint": null, "bias_constraint": null}, "inbound_nodes": [[["dense_1", 0, 0, {}]]]}, {"name": "output", "class_name": "Dense", "config": {"name": "output", "trainable": true, "units": 1, "activation": "sigmoid", "use_bias": true, "kernel_initializer": {"class_name": "VarianceScaling", "config": {"scale": 1.0, "mode": "fan_avg", "distribution": "uniform", "seed": null}}, "bias_initializer": {"class_name": "Zeros", "config": {}}, "kernel_regularizer": null, "bias_regularizer": null, "activity_regularizer": null, "kernel_constraint": null, "bias_constraint": null}, "inbound_nodes": [[["dense_2", 0, 0, {}]]]}], "input_layers": [["question", 0, 0], ["premise0", 0, 0], ["premise1", 0, 0], ["premise2", 0, 0]], "output_layers": [["output", 0, 0]]}, "keras_version": "2.2.4", "backend": "tensorflow"}