{"class_name": "Model", "keras_version": "2.2.4", "config": {"layers": [{"class_name": "InputLayer", "config": {"dtype": "float32", "batch_input_shape": [null, 15, 120], "name": "input0", "sparse": false}, "inbound_nodes": [], "name": "input0"}, {"class_name": "InputLayer", "config": {"dtype": "float32", "batch_input_shape": [null, 15, 120], "name": "input1", "sparse": false}, "inbound_nodes": [], "name": "input1"}, {"class_name": "InputLayer", "config": {"dtype": "float32", "batch_input_shape": [null, 15, 120], "name": "input2", "sparse": false}, "inbound_nodes": [], "name": "input2"}, {"class_name": "Conv1D", "config": {"kernel_constraint": null, "kernel_initializer": {"class_name": "VarianceScaling", "config": {"distribution": "uniform", "scale": 1.0, "seed": null, "mode": "fan_avg"}}, "name": "shared_conv_1", "bias_regularizer": null, "bias_constraint": null, "activation": "relu", "trainable": true, "data_format": "channels_last", "padding": "valid", "strides": [1], "dilation_rate": [1], "kernel_regularizer": null, "filters": 128, "bias_initializer": {"class_name": "Zeros", "config": {}}, "use_bias": true, "activity_regularizer": null, "kernel_size": [1]}, "inbound_nodes": [[["input0", 0, 0, {}]], [["input1", 0, 0, {}]], [["input2", 0, 0, {}]]], "name": "shared_conv_1"}, {"class_name": "Conv1D", "config": {"kernel_constraint": null, "kernel_initializer": {"class_name": "VarianceScaling", "config": {"distribution": "uniform", "scale": 1.0, "seed": null, "mode": "fan_avg"}}, "name": "shared_conv_2", "bias_regularizer": null, "bias_constraint": null, "activation": "relu", "trainable": true, "data_format": "channels_last", "padding": "valid", "strides": [1], "dilation_rate": [1], "kernel_regularizer": null, "filters": 128, "bias_initializer": {"class_name": "Zeros", "config": {}}, "use_bias": true, "activity_regularizer": null, "kernel_size": [2]}, "inbound_nodes": [[["input0", 0, 0, {}]], [["input1", 0, 0, {}]], [["input2", 0, 0, {}]]], "name": "shared_conv_2"}, {"class_name": "MaxPooling1D", "config": {"name": "max_pooling1d_1", "trainable": true, "data_format": "channels_last", "pool_size": [1], "padding": "valid", "strides": [1]}, "inbound_nodes": [[["shared_conv_1", 0, 0, {}]]], "name": "max_pooling1d_1"}, {"class_name": "MaxPooling1D", "config": {"name": "max_pooling1d_2", "trainable": true, "data_format": "channels_last", "pool_size": [1], "padding": "valid", "strides": [1]}, "inbound_nodes": [[["shared_conv_1", 1, 0, {}]]], "name": "max_pooling1d_2"}, {"class_name": "MaxPooling1D", "config": {"name": "max_pooling1d_3", "trainable": true, "data_format": "channels_last", "pool_size": [1], "padding": "valid", "strides": [1]}, "inbound_nodes": [[["shared_conv_1", 2, 0, {}]]], "name": "max_pooling1d_3"}, {"class_name": "MaxPooling1D", "config": {"name": "max_pooling1d_4", "trainable": true, "data_format": "channels_last", "pool_size": [2], "padding": "valid", "strides": [2]}, "inbound_nodes": [[["shared_conv_2", 0, 0, {}]]], "name": "max_pooling1d_4"}, {"class_name": "MaxPooling1D", "config": {"name": "max_pooling1d_5", "trainable": true, "data_format": "channels_last", "pool_size": [2], "padding": "valid", "strides": [2]}, "inbound_nodes": [[["shared_conv_2", 1, 0, {}]]], "name": "max_pooling1d_5"}, {"class_name": "MaxPooling1D", "config": {"name": "max_pooling1d_6", "trainable": true, "data_format": "channels_last", "pool_size": [2], "padding": "valid", "strides": [2]}, "inbound_nodes": [[["shared_conv_2", 2, 0, {}]]], "name": "max_pooling1d_6"}, {"class_name": "InputLayer", "config": {"dtype": "float32", "batch_input_shape": [null, 19045], "name": "lemmas0", "sparse": false}, "inbound_nodes": [], "name": "lemmas0"}, {"class_name": "InputLayer", "config": {"dtype": "float32", "batch_input_shape": [null, 19045], "name": "lemmas1", "sparse": false}, "inbound_nodes": [], "name": "lemmas1"}, {"class_name": "InputLayer", "config": {"dtype": "float32", "batch_input_shape": [null, 19045], "name": "lemmas2", "sparse": false}, "inbound_nodes": [], "name": "lemmas2"}, {"class_name": "LSTM", "config": {"recurrent_activation": "hard_sigmoid", "trainable": true, "recurrent_initializer": {"class_name": "Orthogonal", "config": {"seed": null, "gain": 1.0}}, "use_bias": true, "bias_regularizer": null, "return_state": false, "unroll": false, "activation": "tanh", "bias_initializer": {"class_name": "Zeros", "config": {}}, "units": 120, "unit_forget_bias": true, "activity_regularizer": null, "recurrent_dropout": 0.0, "kernel_initializer": {"class_name": "VarianceScaling", "config": {"distribution": "uniform", "scale": 1.0, "seed": null, "mode": "fan_avg"}}, "kernel_constraint": null, "dropout": 0.0, "stateful": false, "recurrent_regularizer": null, "name": "lstm_1", "bias_constraint": null, "go_backwards": false, "implementation": 1, "kernel_regularizer": null, "return_sequences": false, "recurrent_constraint": null}, "inbound_nodes": [[["max_pooling1d_1", 0, 0, {}]], [["max_pooling1d_2", 0, 0, {}]], [["max_pooling1d_3", 0, 0, {}]]], "name": "lstm_1"}, {"class_name": "LSTM", "config": {"recurrent_activation": "hard_sigmoid", "trainable": true, "recurrent_initializer": {"class_name": "Orthogonal", "config": {"seed": null, "gain": 1.0}}, "use_bias": true, "bias_regularizer": null, "return_state": false, "unroll": false, "activation": "tanh", "bias_initializer": {"class_name": "Zeros", "config": {}}, "units": 120, "unit_forget_bias": true, "activity_regularizer": null, "recurrent_dropout": 0.0, "kernel_initializer": {"class_name": "VarianceScaling", "config": {"distribution": "uniform", "scale": 1.0, "seed": null, "mode": "fan_avg"}}, "kernel_constraint": null, "dropout": 0.0, "stateful": false, "recurrent_regularizer": null, "name": "lstm_2", "bias_constraint": null, "go_backwards": false, "implementation": 1, "kernel_regularizer": null, "return_sequences": false, "recurrent_constraint": null}, "inbound_nodes": [[["max_pooling1d_4", 0, 0, {}]], [["max_pooling1d_5", 0, 0, {}]], [["max_pooling1d_6", 0, 0, {}]]], "name": "lstm_2"}, {"class_name": "Concatenate", "config": {"trainable": true, "name": "concatenate_1", "axis": -1}, "inbound_nodes": [[["lemmas0", 0, 0, {}], ["lemmas1", 0, 0, {}], ["lemmas2", 0, 0, {}], ["lstm_1", 0, 0, {}], ["lstm_1", 1, 0, {}], ["lstm_1", 2, 0, {}], ["lstm_2", 0, 0, {}], ["lstm_2", 1, 0, {}], ["lstm_2", 2, 0, {}]]], "name": "concatenate_1"}, {"class_name": "Dense", "config": {"kernel_initializer": {"class_name": "VarianceScaling", "config": {"distribution": "uniform", "scale": 1.0, "seed": null, "mode": "fan_avg"}}, "name": "dense_1", "kernel_constraint": null, "bias_regularizer": null, "bias_constraint": null, "activation": "relu", "trainable": true, "kernel_regularizer": null, "bias_initializer": {"class_name": "Zeros", "config": {}}, "units": 100, "use_bias": true, "activity_regularizer": null}, "inbound_nodes": [[["concatenate_1", 0, 0, {}]]], "name": "dense_1"}, {"class_name": "RepeatVector", "config": {"trainable": true, "name": "repeat_vector_1", "n": 13}, "inbound_nodes": [[["dense_1", 0, 0, {}]]], "name": "repeat_vector_1"}, {"class_name": "LSTM", "config": {"recurrent_activation": "hard_sigmoid", "trainable": true, "recurrent_initializer": {"class_name": "Orthogonal", "config": {"seed": null, "gain": 1.0}}, "use_bias": true, "bias_regularizer": null, "return_state": false, "unroll": false, "activation": "tanh", "bias_initializer": {"class_name": "Zeros", "config": {}}, "units": 100, "unit_forget_bias": true, "activity_regularizer": null, "recurrent_dropout": 0.0, "kernel_initializer": {"class_name": "VarianceScaling", "config": {"distribution": "uniform", "scale": 1.0, "seed": null, "mode": "fan_avg"}}, "kernel_constraint": null, "dropout": 0.0, "stateful": false, "recurrent_regularizer": null, "name": "lstm_3", "bias_constraint": null, "go_backwards": false, "implementation": 1, "kernel_regularizer": null, "return_sequences": true, "recurrent_constraint": null}, "inbound_nodes": [[["repeat_vector_1", 0, 0, {}]]], "name": "lstm_3"}, {"class_name": "TimeDistributed", "config": {"layer": {"class_name": "Dense", "config": {"kernel_initializer": {"class_name": "VarianceScaling", "config": {"distribution": "uniform", "scale": 1.0, "seed": null, "mode": "fan_avg"}}, "name": "dense_2", "kernel_constraint": null, "bias_regularizer": null, "bias_constraint": null, "activation": "softmax", "trainable": true, "kernel_regularizer": null, "bias_initializer": {"class_name": "Zeros", "config": {}}, "units": 19045, "use_bias": true, "activity_regularizer": null}}, "trainable": true, "name": "output"}, "inbound_nodes": [[["lstm_3", 0, 0, {}]]], "name": "output"}], "input_layers": [["input0", 0, 0], ["input1", 0, 0], ["input2", 0, 0], ["lemmas0", 0, 0], ["lemmas1", 0, 0], ["lemmas2", 0, 0]], "output_layers": [["output", 0, 0]], "name": "model_1"}, "backend": "tensorflow"}