{"class_name": "Model", "keras_version": "2.1.3", "config": {"layers": [{"class_name": "InputLayer", "config": {"dtype": "float32", "batch_input_shape": [null, 23, 88], "name": "input_words1", "sparse": false}, "inbound_nodes": [], "name": "input_words1"}, {"class_name": "InputLayer", "config": {"dtype": "float32", "batch_input_shape": [null, 23, 88], "name": "input_words2", "sparse": false}, "inbound_nodes": [], "name": "input_words2"}, {"class_name": "Conv1D", "config": {"kernel_constraint": null, "kernel_initializer": {"class_name": "VarianceScaling", "config": {"distribution": "uniform", "scale": 1.0, "seed": null, "mode": "fan_avg"}}, "name": "shared_conv_1", "bias_regularizer": null, "bias_constraint": null, "activation": "relu", "trainable": true, "padding": "valid", "strides": [1], "dilation_rate": [1], "kernel_regularizer": null, "filters": 128, "bias_initializer": {"class_name": "Zeros", "config": {}}, "use_bias": true, "activity_regularizer": null, "kernel_size": [1]}, "inbound_nodes": [[["input_words1", 0, 0, {}]], [["input_words2", 0, 0, {}]]], "name": "shared_conv_1"}, {"class_name": "Conv1D", "config": {"kernel_constraint": null, "kernel_initializer": {"class_name": "VarianceScaling", "config": {"distribution": "uniform", "scale": 1.0, "seed": null, "mode": "fan_avg"}}, "name": "shared_conv_2", "bias_regularizer": null, "bias_constraint": null, "activation": "relu", "trainable": true, "padding": "valid", "strides": [1], "dilation_rate": [1], "kernel_regularizer": null, "filters": 128, "bias_initializer": {"class_name": "Zeros", "config": {}}, "use_bias": true, "activity_regularizer": null, "kernel_size": [2]}, "inbound_nodes": [[["input_words1", 0, 0, {}]], [["input_words2", 0, 0, {}]]], "name": "shared_conv_2"}, {"class_name": "Conv1D", "config": {"kernel_constraint": null, "kernel_initializer": {"class_name": "VarianceScaling", "config": {"distribution": "uniform", "scale": 1.0, "seed": null, "mode": "fan_avg"}}, "name": "shared_conv_3", "bias_regularizer": null, "bias_constraint": null, "activation": "relu", "trainable": true, "padding": "valid", "strides": [1], "dilation_rate": [1], "kernel_regularizer": null, "filters": 128, "bias_initializer": {"class_name": "Zeros", "config": {}}, "use_bias": true, "activity_regularizer": null, "kernel_size": [3]}, "inbound_nodes": [[["input_words1", 0, 0, {}]], [["input_words2", 0, 0, {}]]], "name": "shared_conv_3"}, {"class_name": "MaxPooling1D", "config": {"padding": "valid", "strides": [1], "trainable": true, "name": "max_pooling1d_1", "pool_size": [1]}, "inbound_nodes": [[["shared_conv_1", 0, 0, {}]], [["shared_conv_1", 1, 0, {}]]], "name": "max_pooling1d_1"}, {"class_name": "MaxPooling1D", "config": {"padding": "valid", "strides": [2], "trainable": true, "name": "max_pooling1d_2", "pool_size": [2]}, "inbound_nodes": [[["shared_conv_2", 0, 0, {}]], [["shared_conv_2", 1, 0, {}]]], "name": "max_pooling1d_2"}, {"class_name": "MaxPooling1D", "config": {"padding": "valid", "strides": [3], "trainable": true, "name": "max_pooling1d_3", "pool_size": [3]}, "inbound_nodes": [[["shared_conv_3", 0, 0, {}]], [["shared_conv_3", 1, 0, {}]]], "name": "max_pooling1d_3"}, {"class_name": "LSTM", "config": {"recurrent_activation": "hard_sigmoid", "trainable": true, "recurrent_initializer": {"class_name": "Orthogonal", "config": {"seed": null, "gain": 1.0}}, "use_bias": true, "bias_regularizer": null, "return_state": false, "unroll": false, "activation": "tanh", "bias_initializer": {"class_name": "Zeros", "config": {}}, "units": 88, "unit_forget_bias": true, "activity_regularizer": null, "recurrent_dropout": 0.0, "kernel_initializer": {"class_name": "VarianceScaling", "config": {"distribution": "uniform", "scale": 1.0, "seed": null, "mode": "fan_avg"}}, "kernel_constraint": null, "dropout": 0.0, "stateful": false, "recurrent_regularizer": null, "name": "lstm_1", "bias_constraint": null, "go_backwards": false, "implementation": 1, "kernel_regularizer": null, "return_sequences": false, "recurrent_constraint": null}, "inbound_nodes": [[["max_pooling1d_1", 0, 0, {}]], [["max_pooling1d_1", 1, 0, {}]]], "name": "lstm_1"}, {"class_name": "LSTM", "config": {"recurrent_activation": "hard_sigmoid", "trainable": true, "recurrent_initializer": {"class_name": "Orthogonal", "config": {"seed": null, "gain": 1.0}}, "use_bias": true, "bias_regularizer": null, "return_state": false, "unroll": false, "activation": "tanh", "bias_initializer": {"class_name": "Zeros", "config": {}}, "units": 88, "unit_forget_bias": true, "activity_regularizer": null, "recurrent_dropout": 0.0, "kernel_initializer": {"class_name": "VarianceScaling", "config": {"distribution": "uniform", "scale": 1.0, "seed": null, "mode": "fan_avg"}}, "kernel_constraint": null, "dropout": 0.0, "stateful": false, "recurrent_regularizer": null, "name": "lstm_2", "bias_constraint": null, "go_backwards": false, "implementation": 1, "kernel_regularizer": null, "return_sequences": false, "recurrent_constraint": null}, "inbound_nodes": [[["max_pooling1d_2", 0, 0, {}]], [["max_pooling1d_2", 1, 0, {}]]], "name": "lstm_2"}, {"class_name": "LSTM", "config": {"recurrent_activation": "hard_sigmoid", "trainable": true, "recurrent_initializer": {"class_name": "Orthogonal", "config": {"seed": null, "gain": 1.0}}, "use_bias": true, "bias_regularizer": null, "return_state": false, "unroll": false, "activation": "tanh", "bias_initializer": {"class_name": "Zeros", "config": {}}, "units": 88, "unit_forget_bias": true, "activity_regularizer": null, "recurrent_dropout": 0.0, "kernel_initializer": {"class_name": "VarianceScaling", "config": {"distribution": "uniform", "scale": 1.0, "seed": null, "mode": "fan_avg"}}, "kernel_constraint": null, "dropout": 0.0, "stateful": false, "recurrent_regularizer": null, "name": "lstm_3", "bias_constraint": null, "go_backwards": false, "implementation": 1, "kernel_regularizer": null, "return_sequences": false, "recurrent_constraint": null}, "inbound_nodes": [[["max_pooling1d_3", 0, 0, {}]], [["max_pooling1d_3", 1, 0, {}]]], "name": "lstm_3"}, {"class_name": "Concatenate", "config": {"trainable": true, "name": "concatenate_1", "axis": -1}, "inbound_nodes": [[["lstm_1", 0, 0, {}], ["lstm_2", 0, 0, {}], ["lstm_3", 0, 0, {}], ["lstm_1", 1, 0, {}], ["lstm_2", 1, 0, {}], ["lstm_3", 1, 0, {}]]], "name": "concatenate_1"}, {"class_name": "Dense", "config": {"kernel_initializer": {"class_name": "VarianceScaling", "config": {"distribution": "uniform", "scale": 1.0, "seed": null, "mode": "fan_avg"}}, "name": "dense_1", "kernel_constraint": null, "bias_regularizer": null, "bias_constraint": null, "activation": "relu", "trainable": true, "kernel_regularizer": null, "bias_initializer": {"class_name": "Zeros", "config": {}}, "units": 528, "use_bias": true, "activity_regularizer": null}, "inbound_nodes": [[["concatenate_1", 0, 0, {}]]], "name": "dense_1"}, {"class_name": "Dense", "config": {"kernel_initializer": {"class_name": "VarianceScaling", "config": {"distribution": "uniform", "scale": 1.0, "seed": null, "mode": "fan_avg"}}, "name": "dense_2", "kernel_constraint": null, "bias_regularizer": null, "bias_constraint": null, "activation": "relu", "trainable": true, "kernel_regularizer": null, "bias_initializer": {"class_name": "Zeros", "config": {}}, "units": 88, "use_bias": true, "activity_regularizer": null}, "inbound_nodes": [[["dense_1", 0, 0, {}]]], "name": "dense_2"}, {"class_name": "Dense", "config": {"kernel_initializer": {"class_name": "VarianceScaling", "config": {"distribution": "uniform", "scale": 1.0, "seed": null, "mode": "fan_avg"}}, "name": "dense_5", "kernel_constraint": null, "bias_regularizer": null, "bias_constraint": null, "activation": "relu", "trainable": true, "kernel_regularizer": null, "bias_initializer": {"class_name": "Zeros", "config": {}}, "units": 88, "use_bias": true, "activity_regularizer": null}, "inbound_nodes": [[["dense_1", 0, 0, {}]]], "name": "dense_5"}, {"class_name": "Dense", "config": {"kernel_initializer": {"class_name": "VarianceScaling", "config": {"distribution": "uniform", "scale": 1.0, "seed": null, "mode": "fan_avg"}}, "name": "dense_3", "kernel_constraint": null, "bias_regularizer": null, "bias_constraint": null, "activation": "relu", "trainable": true, "kernel_regularizer": null, "bias_initializer": {"class_name": "Zeros", "config": {}}, "units": 44, "use_bias": true, "activity_regularizer": null}, "inbound_nodes": [[["dense_2", 0, 0, {}]]], "name": "dense_3"}, {"class_name": "Dense", "config": {"kernel_initializer": {"class_name": "VarianceScaling", "config": {"distribution": "uniform", "scale": 1.0, "seed": null, "mode": "fan_avg"}}, "name": "dense_6", "kernel_constraint": null, "bias_regularizer": null, "bias_constraint": null, "activation": "relu", "trainable": true, "kernel_regularizer": null, "bias_initializer": {"class_name": "Zeros", "config": {}}, "units": 44, "use_bias": true, "activity_regularizer": null}, "inbound_nodes": [[["dense_5", 0, 0, {}]]], "name": "dense_6"}, {"class_name": "Dense", "config": {"kernel_initializer": {"class_name": "VarianceScaling", "config": {"distribution": "uniform", "scale": 1.0, "seed": null, "mode": "fan_avg"}}, "name": "dense_4", "kernel_constraint": null, "bias_regularizer": null, "bias_constraint": null, "activation": "relu", "trainable": true, "kernel_regularizer": null, "bias_initializer": {"class_name": "Zeros", "config": {}}, "units": 29, "use_bias": true, "activity_regularizer": null}, "inbound_nodes": [[["dense_3", 0, 0, {}]]], "name": "dense_4"}, {"class_name": "Dense", "config": {"kernel_initializer": {"class_name": "VarianceScaling", "config": {"distribution": "uniform", "scale": 1.0, "seed": null, "mode": "fan_avg"}}, "name": "dense_7", "kernel_constraint": null, "bias_regularizer": null, "bias_constraint": null, "activation": "relu", "trainable": true, "kernel_regularizer": null, "bias_initializer": {"class_name": "Zeros", "config": {}}, "units": 29, "use_bias": true, "activity_regularizer": null}, "inbound_nodes": [[["dense_6", 0, 0, {}]]], "name": "dense_7"}, {"class_name": "Dense", "config": {"kernel_initializer": {"class_name": "VarianceScaling", "config": {"distribution": "uniform", "scale": 1.0, "seed": null, "mode": "fan_avg"}}, "name": "output_beg", "kernel_constraint": null, "bias_regularizer": null, "bias_constraint": null, "activation": "softmax", "trainable": true, "kernel_regularizer": null, "bias_initializer": {"class_name": "Zeros", "config": {}}, "units": 23, "use_bias": true, "activity_regularizer": null}, "inbound_nodes": [[["dense_4", 0, 0, {}]]], "name": "output_beg"}, {"class_name": "Dense", "config": {"kernel_initializer": {"class_name": "VarianceScaling", "config": {"distribution": "uniform", "scale": 1.0, "seed": null, "mode": "fan_avg"}}, "name": "output_end", "kernel_constraint": null, "bias_regularizer": null, "bias_constraint": null, "activation": "softmax", "trainable": true, "kernel_regularizer": null, "bias_initializer": {"class_name": "Zeros", "config": {}}, "units": 23, "use_bias": true, "activity_regularizer": null}, "inbound_nodes": [[["dense_7", 0, 0, {}]]], "name": "output_end"}], "input_layers": [["input_words1", 0, 0], ["input_words2", 0, 0]], "output_layers": [["output_beg", 0, 0], ["output_end", 0, 0]], "name": "model_1"}, "backend": "theano"}